{"class_name": "Sequential", "config": [{"class_name": "Conv2D", "config": {"strides": [1, 1], "activation": "relu", "padding": "valid", "dtype": "float32", "bias_constraint": null, "name": "conv2d_1", "kernel_regularizer": null, "bias_regularizer": null, "kernel_initializer": {"class_name": "VarianceScaling", "config": {"scale": 1.0, "mode": "fan_avg", "distribution": "uniform", "seed": null}}, "kernel_constraint": null, "dilation_rate": [1, 1], "trainable": true, "bias_initializer": {"class_name": "Zeros", "config": {}}, "filters": 64, "kernel_size": [3, 3], "batch_input_shape": [null, 40, 80, 3], "use_bias": true, "activity_regularizer": null, "data_format": "channels_last"}}, {"class_name": "Conv2D", "config": {"strides": [1, 1], "activation": "relu", "padding": "valid", "bias_constraint": null, "name": "conv2d_2", "bias_regularizer": null, "kernel_initializer": {"class_name": "VarianceScaling", "config": {"scale": 1.0, "mode": "fan_avg", "distribution": "uniform", "seed": null}}, "kernel_constraint": null, "dilation_rate": [1, 1], "trainable": true, "bias_initializer": {"class_name": "Zeros", "config": {}}, "kernel_regularizer": null, "kernel_size": [3, 3], "filters": 128, "use_bias": true, "activity_regularizer": null, "data_format": "channels_last"}}, {"class_name": "MaxPooling2D", "config": {"strides": [2, 2], "trainable": true, "padding": "valid", "name": "max_pooling2d_1", "pool_size": [2, 2], "data_format": "channels_last"}}, {"class_name": "Dropout", "config": {"name": "dropout_1", "trainable": true, "rate": 0.25}}, {"class_name": "Conv2D", "config": {"strides": [1, 1], "activation": "relu", "padding": "valid", "bias_constraint": null, "name": "conv2d_3", "bias_regularizer": null, "kernel_initializer": {"class_name": "VarianceScaling", "config": {"scale": 1.0, "mode": "fan_avg", "distribution": "uniform", "seed": null}}, "kernel_constraint": null, "dilation_rate": [1, 1], "trainable": true, "bias_initializer": {"class_name": "Zeros", "config": {}}, "kernel_regularizer": null, "kernel_size": [3, 3], "filters": 256, "use_bias": true, "activity_regularizer": null, "data_format": "channels_last"}}, {"class_name": "Conv2D", "config": {"strides": [1, 1], "activation": "relu", "padding": "valid", "bias_constraint": null, "name": "conv2d_4", "bias_regularizer": null, "kernel_initializer": {"class_name": "VarianceScaling", "config": {"scale": 1.0, "mode": "fan_avg", "distribution": "uniform", "seed": null}}, "kernel_constraint": null, "dilation_rate": [1, 1], "trainable": true, "bias_initializer": {"class_name": "Zeros", "config": {}}, "kernel_regularizer": null, "kernel_size": [3, 3], "filters": 256, "use_bias": true, "activity_regularizer": null, "data_format": "channels_last"}}, {"class_name": "MaxPooling2D", "config": {"strides": [2, 2], "trainable": true, "padding": "valid", "name": "max_pooling2d_2", "pool_size": [2, 2], "data_format": "channels_last"}}, {"class_name": "Dropout", "config": {"name": "dropout_2", "trainable": true, "rate": 0.25}}, {"class_name": "Conv2D", "config": {"strides": [1, 1], "activation": "relu", "padding": "valid", "bias_constraint": null, "name": "conv2d_5", "bias_regularizer": null, "kernel_initializer": {"class_name": "VarianceScaling", "config": {"scale": 1.0, "mode": "fan_avg", "distribution": "uniform", "seed": null}}, "kernel_constraint": null, "dilation_rate": [1, 1], "trainable": true, "bias_initializer": {"class_name": "Zeros", "config": {}}, "kernel_regularizer": null, "kernel_size": [3, 3], "filters": 256, "use_bias": true, "activity_regularizer": null, "data_format": "channels_last"}}, {"class_name": "Conv2D", "config": {"strides": [1, 1], "activation": "relu", "padding": "valid", "bias_constraint": null, "name": "conv2d_6", "bias_regularizer": null, "kernel_initializer": {"class_name": "VarianceScaling", "config": {"scale": 1.0, "mode": "fan_avg", "distribution": "uniform", "seed": null}}, "kernel_constraint": null, "dilation_rate": [1, 1], "trainable": true, "bias_initializer": {"class_name": "Zeros", "config": {}}, "kernel_regularizer": null, "kernel_size": [3, 3], "filters": 512, "use_bias": true, "activity_regularizer": null, "data_format": "channels_last"}}, {"class_name": "MaxPooling2D", "config": {"strides": [2, 2], "trainable": true, "padding": "valid", "name": "max_pooling2d_3", "pool_size": [2, 2], "data_format": "channels_last"}}, {"class_name": "Dropout", "config": {"name": "dropout_3", "trainable": true, "rate": 0.25}}, {"class_name": "Flatten", "config": {"name": "flatten_1", "trainable": true}}, {"class_name": "Dense", "config": {"bias_constraint": null, "activation": "relu", "units": 1024, "name": "dense_1", "bias_regularizer": null, "kernel_initializer": {"class_name": "VarianceScaling", "config": {"scale": 1.0, "mode": "fan_avg", "distribution": "uniform", "seed": null}}, "kernel_constraint": null, "trainable": true, "bias_initializer": {"class_name": "Zeros", "config": {}}, "kernel_regularizer": null, "activity_regularizer": null, "use_bias": true}}, {"class_name": "Dropout", "config": {"name": "dropout_4", "trainable": true, "rate": 0.5}}, {"class_name": "Dense", "config": {"bias_constraint": null, "activation": "softmax", "units": 7, "name": "dense_2", "bias_regularizer": null, "kernel_initializer": {"class_name": "VarianceScaling", "config": {"scale": 1.0, "mode": "fan_avg", "distribution": "uniform", "seed": null}}, "kernel_constraint": null, "trainable": true, "bias_initializer": {"class_name": "Zeros", "config": {}}, "kernel_regularizer": null, "activity_regularizer": null, "use_bias": true}}], "keras_version": "2.0.5", "backend": "tensorflow"}